…
2018-06-15 20:29:27.489808: I tensorflow/core/common_runtime/gpu/gpu_device.cc:1053] Created TensorFlow device (/job:localhost/replica:0/task:0/device:GPU:0 with 15031 MB memory) -> physical GPU (device: 0, name: Tesla P100-PCIE-16GB, pci bus id: 0000:00:04.0, compute capability: 6.0)
Found 9954 images belonging to 13 classes.
Found 2482 images belonging to 13 classes.
__________________________________________________________________________________________________
Layer (type)                    Output Shape         Param #     Connected to                     
==================================================================================================
input_1 (InputLayer)            (None, 128, 128, 3)  0                                            
__________________________________________________________________________________________________
conv2d_1 (Conv2D)               (None, 64, 64, 64)   9472        input_1[0][0]                    
__________________________________________________________________________________________________
batch_normalization_1 (BatchNor (None, 64, 64, 64)   256         conv2d_1[0][0]                   
__________________________________________________________________________________________________
leaky_re_lu_1 (LeakyReLU)       (None, 64, 64, 64)   0           batch_normalization_1[0][0]      
__________________________________________________________________________________________________
max_pooling2d_1 (MaxPooling2D)  (None, 32, 32, 64)   0           leaky_re_lu_1[0][0]              
__________________________________________________________________________________________________
conv2d_2 (Conv2D)               (None, 32, 32, 64)   36928       max_pooling2d_1[0][0]            
__________________________________________________________________________________________________
batch_normalization_2 (BatchNor (None, 32, 32, 64)   256         conv2d_2[0][0]                   
__________________________________________________________________________________________________
leaky_re_lu_2 (LeakyReLU)       (None, 32, 32, 64)   0           batch_normalization_2[0][0]      
__________________________________________________________________________________________________
conv2d_3 (Conv2D)               (None, 32, 32, 64)   36928       leaky_re_lu_2[0][0]              
__________________________________________________________________________________________________
add_1 (Add)                     (None, 32, 32, 64)   0           max_pooling2d_1[0][0]            
                                                                 conv2d_3[0][0]                   
__________________________________________________________________________________________________
batch_normalization_3 (BatchNor (None, 32, 32, 64)   256         add_1[0][0]                      
__________________________________________________________________________________________________
leaky_re_lu_3 (LeakyReLU)       (None, 32, 32, 64)   0           batch_normalization_3[0][0]      
__________________________________________________________________________________________________
conv2d_4 (Conv2D)               (None, 32, 32, 64)   36928       leaky_re_lu_3[0][0]              
__________________________________________________________________________________________________
batch_normalization_4 (BatchNor (None, 32, 32, 64)   256         conv2d_4[0][0]                   
__________________________________________________________________________________________________
leaky_re_lu_4 (LeakyReLU)       (None, 32, 32, 64)   0           batch_normalization_4[0][0]      
__________________________________________________________________________________________________
conv2d_5 (Conv2D)               (None, 32, 32, 64)   36928       leaky_re_lu_4[0][0]              
__________________________________________________________________________________________________
add_2 (Add)                     (None, 32, 32, 64)   0           add_1[0][0]                      
                                                                 conv2d_5[0][0]                   
__________________________________________________________________________________________________
batch_normalization_5 (BatchNor (None, 32, 32, 64)   256         add_2[0][0]                      
__________________________________________________________________________________________________
leaky_re_lu_5 (LeakyReLU)       (None, 32, 32, 64)   0           batch_normalization_5[0][0]      
__________________________________________________________________________________________________
conv2d_6 (Conv2D)               (None, 32, 32, 64)   36928       leaky_re_lu_5[0][0]              
__________________________________________________________________________________________________
batch_normalization_6 (BatchNor (None, 32, 32, 64)   256         conv2d_6[0][0]                   
__________________________________________________________________________________________________
leaky_re_lu_6 (LeakyReLU)       (None, 32, 32, 64)   0           batch_normalization_6[0][0]      
__________________________________________________________________________________________________
conv2d_7 (Conv2D)               (None, 32, 32, 64)   36928       leaky_re_lu_6[0][0]              
__________________________________________________________________________________________________
add_3 (Add)                     (None, 32, 32, 64)   0           add_2[0][0]                      
                                                                 conv2d_7[0][0]                   
__________________________________________________________________________________________________
batch_normalization_7 (BatchNor (None, 32, 32, 64)   256         add_3[0][0]                      
__________________________________________________________________________________________________
leaky_re_lu_7 (LeakyReLU)       (None, 32, 32, 64)   0           batch_normalization_7[0][0]      
__________________________________________________________________________________________________
conv2d_8 (Conv2D)               (None, 16, 16, 128)  73856       leaky_re_lu_7[0][0]              
__________________________________________________________________________________________________
batch_normalization_8 (BatchNor (None, 16, 16, 128)  512         conv2d_8[0][0]                   
__________________________________________________________________________________________________
leaky_re_lu_8 (LeakyReLU)       (None, 16, 16, 128)  0           batch_normalization_8[0][0]      
__________________________________________________________________________________________________
conv2d_10 (Conv2D)              (None, 16, 16, 128)  8320        add_3[0][0]                      
__________________________________________________________________________________________________
conv2d_9 (Conv2D)               (None, 16, 16, 128)  147584      leaky_re_lu_8[0][0]              
__________________________________________________________________________________________________
add_4 (Add)                     (None, 16, 16, 128)  0           conv2d_10[0][0]                  
                                                                 conv2d_9[0][0]                   
__________________________________________________________________________________________________
batch_normalization_9 (BatchNor (None, 16, 16, 128)  512         add_4[0][0]                      
__________________________________________________________________________________________________
leaky_re_lu_9 (LeakyReLU)       (None, 16, 16, 128)  0           batch_normalization_9[0][0]      
__________________________________________________________________________________________________
conv2d_11 (Conv2D)              (None, 16, 16, 128)  147584      leaky_re_lu_9[0][0]              
__________________________________________________________________________________________________
batch_normalization_10 (BatchNo (None, 16, 16, 128)  512         conv2d_11[0][0]                  
__________________________________________________________________________________________________
leaky_re_lu_10 (LeakyReLU)      (None, 16, 16, 128)  0           batch_normalization_10[0][0]     
__________________________________________________________________________________________________
conv2d_12 (Conv2D)              (None, 16, 16, 128)  147584      leaky_re_lu_10[0][0]             
__________________________________________________________________________________________________
add_5 (Add)                     (None, 16, 16, 128)  0           add_4[0][0]                      
                                                                 conv2d_12[0][0]                  
__________________________________________________________________________________________________
batch_normalization_11 (BatchNo (None, 16, 16, 128)  512         add_5[0][0]                      
__________________________________________________________________________________________________
leaky_re_lu_11 (LeakyReLU)      (None, 16, 16, 128)  0           batch_normalization_11[0][0]     
__________________________________________________________________________________________________
conv2d_13 (Conv2D)              (None, 16, 16, 128)  147584      leaky_re_lu_11[0][0]             
__________________________________________________________________________________________________
batch_normalization_12 (BatchNo (None, 16, 16, 128)  512         conv2d_13[0][0]                  
__________________________________________________________________________________________________
leaky_re_lu_12 (LeakyReLU)      (None, 16, 16, 128)  0           batch_normalization_12[0][0]     
__________________________________________________________________________________________________
conv2d_14 (Conv2D)              (None, 16, 16, 128)  147584      leaky_re_lu_12[0][0]             
__________________________________________________________________________________________________
add_6 (Add)                     (None, 16, 16, 128)  0           add_5[0][0]                      
                                                                 conv2d_14[0][0]                  
__________________________________________________________________________________________________
batch_normalization_13 (BatchNo (None, 16, 16, 128)  512         add_6[0][0]                      
__________________________________________________________________________________________________
leaky_re_lu_13 (LeakyReLU)      (None, 16, 16, 128)  0           batch_normalization_13[0][0]     
__________________________________________________________________________________________________
conv2d_15 (Conv2D)              (None, 16, 16, 128)  147584      leaky_re_lu_13[0][0]             
__________________________________________________________________________________________________
batch_normalization_14 (BatchNo (None, 16, 16, 128)  512         conv2d_15[0][0]                  
__________________________________________________________________________________________________
leaky_re_lu_14 (LeakyReLU)      (None, 16, 16, 128)  0           batch_normalization_14[0][0]     
__________________________________________________________________________________________________
conv2d_16 (Conv2D)              (None, 16, 16, 128)  147584      leaky_re_lu_14[0][0]             
__________________________________________________________________________________________________
add_7 (Add)                     (None, 16, 16, 128)  0           add_6[0][0]                      
                                                                 conv2d_16[0][0]                  
__________________________________________________________________________________________________
batch_normalization_15 (BatchNo (None, 16, 16, 128)  512         add_7[0][0]                      
__________________________________________________________________________________________________
leaky_re_lu_15 (LeakyReLU)      (None, 16, 16, 128)  0           batch_normalization_15[0][0]     
__________________________________________________________________________________________________
conv2d_17 (Conv2D)              (None, 8, 8, 256)    295168      leaky_re_lu_15[0][0]             
__________________________________________________________________________________________________
batch_normalization_16 (BatchNo (None, 8, 8, 256)    1024        conv2d_17[0][0]                  
__________________________________________________________________________________________________
leaky_re_lu_16 (LeakyReLU)      (None, 8, 8, 256)    0           batch_normalization_16[0][0]     
__________________________________________________________________________________________________
conv2d_19 (Conv2D)              (None, 8, 8, 256)    33024       add_7[0][0]                      
__________________________________________________________________________________________________
conv2d_18 (Conv2D)              (None, 8, 8, 256)    590080      leaky_re_lu_16[0][0]             
__________________________________________________________________________________________________
add_8 (Add)                     (None, 8, 8, 256)    0           conv2d_19[0][0]                  
                                                                 conv2d_18[0][0]                  
__________________________________________________________________________________________________
batch_normalization_17 (BatchNo (None, 8, 8, 256)    1024        add_8[0][0]                      
__________________________________________________________________________________________________
leaky_re_lu_17 (LeakyReLU)      (None, 8, 8, 256)    0           batch_normalization_17[0][0]     
__________________________________________________________________________________________________
conv2d_20 (Conv2D)              (None, 8, 8, 256)    590080      leaky_re_lu_17[0][0]             
__________________________________________________________________________________________________
batch_normalization_18 (BatchNo (None, 8, 8, 256)    1024        conv2d_20[0][0]                  
__________________________________________________________________________________________________
leaky_re_lu_18 (LeakyReLU)      (None, 8, 8, 256)    0           batch_normalization_18[0][0]     
__________________________________________________________________________________________________
conv2d_21 (Conv2D)              (None, 8, 8, 256)    590080      leaky_re_lu_18[0][0]             
__________________________________________________________________________________________________
add_9 (Add)                     (None, 8, 8, 256)    0           add_8[0][0]                      
                                                                 conv2d_21[0][0]                  
__________________________________________________________________________________________________
batch_normalization_19 (BatchNo (None, 8, 8, 256)    1024        add_9[0][0]                      
__________________________________________________________________________________________________
leaky_re_lu_19 (LeakyReLU)      (None, 8, 8, 256)    0           batch_normalization_19[0][0]     
__________________________________________________________________________________________________
conv2d_22 (Conv2D)              (None, 8, 8, 256)    590080      leaky_re_lu_19[0][0]             
__________________________________________________________________________________________________
batch_normalization_20 (BatchNo (None, 8, 8, 256)    1024        conv2d_22[0][0]                  
__________________________________________________________________________________________________
leaky_re_lu_20 (LeakyReLU)      (None, 8, 8, 256)    0           batch_normalization_20[0][0]     
__________________________________________________________________________________________________
conv2d_23 (Conv2D)              (None, 8, 8, 256)    590080      leaky_re_lu_20[0][0]             
__________________________________________________________________________________________________
add_10 (Add)                    (None, 8, 8, 256)    0           add_9[0][0]                      
                                                                 conv2d_23[0][0]                  
__________________________________________________________________________________________________
batch_normalization_21 (BatchNo (None, 8, 8, 256)    1024        add_10[0][0]                     
__________________________________________________________________________________________________
leaky_re_lu_21 (LeakyReLU)      (None, 8, 8, 256)    0           batch_normalization_21[0][0]     
__________________________________________________________________________________________________
conv2d_24 (Conv2D)              (None, 8, 8, 256)    590080      leaky_re_lu_21[0][0]             
__________________________________________________________________________________________________
batch_normalization_22 (BatchNo (None, 8, 8, 256)    1024        conv2d_24[0][0]                  
__________________________________________________________________________________________________
leaky_re_lu_22 (LeakyReLU)      (None, 8, 8, 256)    0           batch_normalization_22[0][0]     
__________________________________________________________________________________________________
conv2d_25 (Conv2D)              (None, 8, 8, 256)    590080      leaky_re_lu_22[0][0]             
__________________________________________________________________________________________________
add_11 (Add)                    (None, 8, 8, 256)    0           add_10[0][0]                     
                                                                 conv2d_25[0][0]                  
__________________________________________________________________________________________________
batch_normalization_23 (BatchNo (None, 8, 8, 256)    1024        add_11[0][0]                     
__________________________________________________________________________________________________
leaky_re_lu_23 (LeakyReLU)      (None, 8, 8, 256)    0           batch_normalization_23[0][0]     
__________________________________________________________________________________________________
conv2d_26 (Conv2D)              (None, 8, 8, 256)    590080      leaky_re_lu_23[0][0]             
__________________________________________________________________________________________________
batch_normalization_24 (BatchNo (None, 8, 8, 256)    1024        conv2d_26[0][0]                  
__________________________________________________________________________________________________
leaky_re_lu_24 (LeakyReLU)      (None, 8, 8, 256)    0           batch_normalization_24[0][0]     
__________________________________________________________________________________________________
conv2d_27 (Conv2D)              (None, 8, 8, 256)    590080      leaky_re_lu_24[0][0]             
__________________________________________________________________________________________________
add_12 (Add)                    (None, 8, 8, 256)    0           add_11[0][0]                     
                                                                 conv2d_27[0][0]                  
__________________________________________________________________________________________________
batch_normalization_25 (BatchNo (None, 8, 8, 256)    1024        add_12[0][0]                     
__________________________________________________________________________________________________
leaky_re_lu_25 (LeakyReLU)      (None, 8, 8, 256)    0           batch_normalization_25[0][0]     
__________________________________________________________________________________________________
conv2d_28 (Conv2D)              (None, 8, 8, 256)    590080      leaky_re_lu_25[0][0]             
__________________________________________________________________________________________________
batch_normalization_26 (BatchNo (None, 8, 8, 256)    1024        conv2d_28[0][0]                  
__________________________________________________________________________________________________
leaky_re_lu_26 (LeakyReLU)      (None, 8, 8, 256)    0           batch_normalization_26[0][0]     
__________________________________________________________________________________________________
conv2d_29 (Conv2D)              (None, 8, 8, 256)    590080      leaky_re_lu_26[0][0]             
__________________________________________________________________________________________________
add_13 (Add)                    (None, 8, 8, 256)    0           add_12[0][0]                     
                                                                 conv2d_29[0][0]                  
__________________________________________________________________________________________________
batch_normalization_27 (BatchNo (None, 8, 8, 256)    1024        add_13[0][0]                     
__________________________________________________________________________________________________
leaky_re_lu_27 (LeakyReLU)      (None, 8, 8, 256)    0           batch_normalization_27[0][0]     
__________________________________________________________________________________________________
conv2d_30 (Conv2D)              (None, 4, 4, 512)    1180160     leaky_re_lu_27[0][0]             
__________________________________________________________________________________________________
batch_normalization_28 (BatchNo (None, 4, 4, 512)    2048        conv2d_30[0][0]                  
__________________________________________________________________________________________________
leaky_re_lu_28 (LeakyReLU)      (None, 4, 4, 512)    0           batch_normalization_28[0][0]     
__________________________________________________________________________________________________
conv2d_32 (Conv2D)              (None, 4, 4, 512)    131584      add_13[0][0]                     
__________________________________________________________________________________________________
conv2d_31 (Conv2D)              (None, 4, 4, 512)    2359808     leaky_re_lu_28[0][0]             
__________________________________________________________________________________________________
add_14 (Add)                    (None, 4, 4, 512)    0           conv2d_32[0][0]                  
                                                                 conv2d_31[0][0]                  
__________________________________________________________________________________________________
batch_normalization_29 (BatchNo (None, 4, 4, 512)    2048        add_14[0][0]                     
__________________________________________________________________________________________________
leaky_re_lu_29 (LeakyReLU)      (None, 4, 4, 512)    0           batch_normalization_29[0][0]     
__________________________________________________________________________________________________
conv2d_33 (Conv2D)              (None, 4, 4, 512)    2359808     leaky_re_lu_29[0][0]             
__________________________________________________________________________________________________
batch_normalization_30 (BatchNo (None, 4, 4, 512)    2048        conv2d_33[0][0]                  
__________________________________________________________________________________________________
leaky_re_lu_30 (LeakyReLU)      (None, 4, 4, 512)    0           batch_normalization_30[0][0]     
__________________________________________________________________________________________________
conv2d_34 (Conv2D)              (None, 4, 4, 512)    2359808     leaky_re_lu_30[0][0]             
__________________________________________________________________________________________________
add_15 (Add)                    (None, 4, 4, 512)    0           add_14[0][0]                     
                                                                 conv2d_34[0][0]                  
__________________________________________________________________________________________________
batch_normalization_31 (BatchNo (None, 4, 4, 512)    2048        add_15[0][0]                     
__________________________________________________________________________________________________
leaky_re_lu_31 (LeakyReLU)      (None, 4, 4, 512)    0           batch_normalization_31[0][0]     
__________________________________________________________________________________________________
conv2d_35 (Conv2D)              (None, 4, 4, 512)    2359808     leaky_re_lu_31[0][0]             
__________________________________________________________________________________________________
batch_normalization_32 (BatchNo (None, 4, 4, 512)    2048        conv2d_35[0][0]                  
__________________________________________________________________________________________________
leaky_re_lu_32 (LeakyReLU)      (None, 4, 4, 512)    0           batch_normalization_32[0][0]     
__________________________________________________________________________________________________
conv2d_36 (Conv2D)              (None, 4, 4, 512)    2359808     leaky_re_lu_32[0][0]             
__________________________________________________________________________________________________
add_16 (Add)                    (None, 4, 4, 512)    0           add_15[0][0]                     
                                                                 conv2d_36[0][0]                  
__________________________________________________________________________________________________
batch_normalization_33 (BatchNo (None, 4, 4, 512)    2048        add_16[0][0]                     
__________________________________________________________________________________________________
leaky_re_lu_33 (LeakyReLU)      (None, 4, 4, 512)    0           batch_normalization_33[0][0]     
__________________________________________________________________________________________________
average_pooling2d_1 (AveragePoo (None, 1, 1, 512)    0           leaky_re_lu_33[0][0]             
__________________________________________________________________________________________________
flatten_1 (Flatten)             (None, 512)          0           average_pooling2d_1[0][0]        
__________________________________________________________________________________________________
dense_1 (Dense)                 (None, 13)           6669        flatten_1[0][0]                  
==================================================================================================
Total params: 21,313,293
Trainable params: 21,298,061
Non-trainable params: 15,232
__________________________________________________________________________________________________
Epoch 1/100

  1/311 [..............................] - ETA: 37:26 - loss: 4.0024 - acc: 0.0312
…
212/311 [===================>..........] - ETA: 17s - loss: 1.3612 - acc: 0.6032
213/311 [===================>..........] - ETA: 17s - loss: 1.3607 - acc: 0.6037
214/311 [===================>..........] - ETA: 17s - loss: 1.3606 - acc: 0.6038Found 9954 images belonging to 13 classes.
Found 2482 images belonging to 13 classes.
__________________________________________________________________________________________________
Layer (type)                    Output Shape         Param #     Connected to                     
==================================================================================================
input_1 (InputLayer)            (None, 128, 128, 3)  0                                            
__________________________________________________________________________________________________
conv2d_1 (Conv2D)               (None, 64, 64, 64)   9472        input_1[0][0]                    
__________________________________________________________________________________________________
batch_normalization_1 (BatchNor (None, 64, 64, 64)   256         conv2d_1[0][0]                   
__________________________________________________________________________________________________
leaky_re_lu_1 (LeakyReLU)       (None, 64, 64, 64)   0           batch_normalization_1[0][0]      
__________________________________________________________________________________________________
max_pooling2d_1 (MaxPooling2D)  (None, 32, 32, 64)   0           leaky_re_lu_1[0][0]              
__________________________________________________________________________________________________
conv2d_2 (Conv2D)               (None, 32, 32, 64)   4160        max_pooling2d_1[0][0]            
__________________________________________________________________________________________________
batch_normalization_2 (BatchNor (None, 32, 32, 64)   256         conv2d_2[0][0]                   
__________________________________________________________________________________________________
leaky_re_lu_2 (LeakyReLU)       (None, 32, 32, 64)   0           batch_normalization_2[0][0]      
__________________________________________________________________________________________________
conv2d_3 (Conv2D)               (None, 32, 32, 64)   36928       leaky_re_lu_2[0][0]              
__________________________________________________________________________________________________
batch_normalization_3 (BatchNor (None, 32, 32, 64)   256         conv2d_3[0][0]                   
__________________________________________________________________________________________________
leaky_re_lu_3 (LeakyReLU)       (None, 32, 32, 64)   0           batch_normalization_3[0][0]      
__________________________________________________________________________________________________
conv2d_5 (Conv2D)               (None, 32, 32, 256)  16640       max_pooling2d_1[0][0]            
__________________________________________________________________________________________________
conv2d_4 (Conv2D)               (None, 32, 32, 256)  16640       leaky_re_lu_3[0][0]              
__________________________________________________________________________________________________
add_1 (Add)                     (None, 32, 32, 256)  0           conv2d_5[0][0]                   
                                                                 conv2d_4[0][0]                   
__________________________________________________________________________________________________
batch_normalization_4 (BatchNor (None, 32, 32, 256)  1024        add_1[0][0]                      
__________________________________________________________________________________________________
leaky_re_lu_4 (LeakyReLU)       (None, 32, 32, 256)  0           batch_normalization_4[0][0]      
__________________________________________________________________________________________________
conv2d_6 (Conv2D)               (None, 32, 32, 64)   16448       leaky_re_lu_4[0][0]              
__________________________________________________________________________________________________
batch_normalization_5 (BatchNor (None, 32, 32, 64)   256         conv2d_6[0][0]                   
__________________________________________________________________________________________________
leaky_re_lu_5 (LeakyReLU)       (None, 32, 32, 64)   0           batch_normalization_5[0][0]      
__________________________________________________________________________________________________
conv2d_7 (Conv2D)               (None, 32, 32, 64)   36928       leaky_re_lu_5[0][0]              
__________________________________________________________________________________________________
batch_normalization_6 (BatchNor (None, 32, 32, 64)   256         conv2d_7[0][0]                   
__________________________________________________________________________________________________
leaky_re_lu_6 (LeakyReLU)       (None, 32, 32, 64)   0           batch_normalization_6[0][0]      
__________________________________________________________________________________________________
conv2d_8 (Conv2D)               (None, 32, 32, 256)  16640       leaky_re_lu_6[0][0]              
__________________________________________________________________________________________________
add_2 (Add)                     (None, 32, 32, 256)  0           add_1[0][0]                      
                                                                 conv2d_8[0][0]                   
__________________________________________________________________________________________________
batch_normalization_7 (BatchNor (None, 32, 32, 256)  1024        add_2[0][0]                      
__________________________________________________________________________________________________
leaky_re_lu_7 (LeakyReLU)       (None, 32, 32, 256)  0           batch_normalization_7[0][0]      
__________________________________________________________________________________________________
conv2d_9 (Conv2D)               (None, 32, 32, 64)   16448       leaky_re_lu_7[0][0]              
__________________________________________________________________________________________________
batch_normalization_8 (BatchNor (None, 32, 32, 64)   256         conv2d_9[0][0]                   
__________________________________________________________________________________________________
leaky_re_lu_8 (LeakyReLU)       (None, 32, 32, 64)   0           batch_normalization_8[0][0]      
__________________________________________________________________________________________________
conv2d_10 (Conv2D)              (None, 32, 32, 64)   36928       leaky_re_lu_8[0][0]              
__________________________________________________________________________________________________
batch_normalization_9 (BatchNor (None, 32, 32, 64)   256         conv2d_10[0][0]                  
__________________________________________________________________________________________________
leaky_re_lu_9 (LeakyReLU)       (None, 32, 32, 64)   0           batch_normalization_9[0][0]      
__________________________________________________________________________________________________
conv2d_11 (Conv2D)              (None, 32, 32, 256)  16640       leaky_re_lu_9[0][0]              
__________________________________________________________________________________________________
add_3 (Add)                     (None, 32, 32, 256)  0           add_2[0][0]                      
                                                                 conv2d_11[0][0]                  
__________________________________________________________________________________________________
batch_normalization_10 (BatchNo (None, 32, 32, 256)  1024        add_3[0][0]                      
__________________________________________________________________________________________________
leaky_re_lu_10 (LeakyReLU)      (None, 32, 32, 256)  0           batch_normalization_10[0][0]     
__________________________________________________________________________________________________
conv2d_12 (Conv2D)              (None, 16, 16, 128)  32896       leaky_re_lu_10[0][0]             
__________________________________________________________________________________________________
batch_normalization_11 (BatchNo (None, 16, 16, 128)  512         conv2d_12[0][0]                  
__________________________________________________________________________________________________
leaky_re_lu_11 (LeakyReLU)      (None, 16, 16, 128)  0           batch_normalization_11[0][0]     
__________________________________________________________________________________________________
conv2d_13 (Conv2D)              (None, 16, 16, 128)  147584      leaky_re_lu_11[0][0]             
__________________________________________________________________________________________________
batch_normalization_12 (BatchNo (None, 16, 16, 128)  512         conv2d_13[0][0]                  
__________________________________________________________________________________________________
leaky_re_lu_12 (LeakyReLU)      (None, 16, 16, 128)  0           batch_normalization_12[0][0]     
__________________________________________________________________________________________________
conv2d_15 (Conv2D)              (None, 16, 16, 512)  131584      add_3[0][0]                      
__________________________________________________________________________________________________
conv2d_14 (Conv2D)              (None, 16, 16, 512)  66048       leaky_re_lu_12[0][0]             
__________________________________________________________________________________________________
add_4 (Add)                     (None, 16, 16, 512)  0           conv2d_15[0][0]                  
                                                                 conv2d_14[0][0]                  
__________________________________________________________________________________________________
batch_normalization_13 (BatchNo (None, 16, 16, 512)  2048        add_4[0][0]                      
__________________________________________________________________________________________________
leaky_re_lu_13 (LeakyReLU)      (None, 16, 16, 512)  0           batch_normalization_13[0][0]     
__________________________________________________________________________________________________
conv2d_16 (Conv2D)              (None, 16, 16, 128)  65664       leaky_re_lu_13[0][0]             
__________________________________________________________________________________________________
batch_normalization_14 (BatchNo (None, 16, 16, 128)  512         conv2d_16[0][0]                  
__________________________________________________________________________________________________
leaky_re_lu_14 (LeakyReLU)      (None, 16, 16, 128)  0           batch_normalization_14[0][0]     
__________________________________________________________________________________________________
conv2d_17 (Conv2D)              (None, 16, 16, 128)  147584      leaky_re_lu_14[0][0]             
__________________________________________________________________________________________________
batch_normalization_15 (BatchNo (None, 16, 16, 128)  512         conv2d_17[0][0]                  
__________________________________________________________________________________________________
leaky_re_lu_15 (LeakyReLU)      (None, 16, 16, 128)  0           batch_normalization_15[0][0]     
__________________________________________________________________________________________________
conv2d_18 (Conv2D)              (None, 16, 16, 512)  66048       leaky_re_lu_15[0][0]             
__________________________________________________________________________________________________
add_5 (Add)                     (None, 16, 16, 512)  0           add_4[0][0]                      
                                                                 conv2d_18[0][0]                  
__________________________________________________________________________________________________
batch_normalization_16 (BatchNo (None, 16, 16, 512)  2048        add_5[0][0]                      
__________________________________________________________________________________________________
leaky_re_lu_16 (LeakyReLU)      (None, 16, 16, 512)  0           batch_normalization_16[0][0]     
__________________________________________________________________________________________________
conv2d_19 (Conv2D)              (None, 16, 16, 128)  65664       leaky_re_lu_16[0][0]             
__________________________________________________________________________________________________
batch_normalization_17 (BatchNo (None, 16, 16, 128)  512         conv2d_19[0][0]                  
__________________________________________________________________________________________________
leaky_re_lu_17 (LeakyReLU)      (None, 16, 16, 128)  0           batch_normalization_17[0][0]     
__________________________________________________________________________________________________
conv2d_20 (Conv2D)              (None, 16, 16, 128)  147584      leaky_re_lu_17[0][0]             
__________________________________________________________________________________________________
batch_normalization_18 (BatchNo (None, 16, 16, 128)  512         conv2d_20[0][0]                  
__________________________________________________________________________________________________
leaky_re_lu_18 (LeakyReLU)      (None, 16, 16, 128)  0           batch_normalization_18[0][0]     
__________________________________________________________________________________________________
conv2d_21 (Conv2D)              (None, 16, 16, 512)  66048       leaky_re_lu_18[0][0]             
__________________________________________________________________________________________________
add_6 (Add)                     (None, 16, 16, 512)  0           add_5[0][0]                      
                                                                 conv2d_21[0][0]                  
__________________________________________________________________________________________________
batch_normalization_19 (BatchNo (None, 16, 16, 512)  2048        add_6[0][0]                      
__________________________________________________________________________________________________
leaky_re_lu_19 (LeakyReLU)      (None, 16, 16, 512)  0           batch_normalization_19[0][0]     
__________________________________________________________________________________________________
conv2d_22 (Conv2D)              (None, 16, 16, 128)  65664       leaky_re_lu_19[0][0]             
__________________________________________________________________________________________________
batch_normalization_20 (BatchNo (None, 16, 16, 128)  512         conv2d_22[0][0]                  
__________________________________________________________________________________________________
leaky_re_lu_20 (LeakyReLU)      (None, 16, 16, 128)  0           batch_normalization_20[0][0]     
__________________________________________________________________________________________________
conv2d_23 (Conv2D)              (None, 16, 16, 128)  147584      leaky_re_lu_20[0][0]             
__________________________________________________________________________________________________
batch_normalization_21 (BatchNo (None, 16, 16, 128)  512         conv2d_23[0][0]                  
__________________________________________________________________________________________________
leaky_re_lu_21 (LeakyReLU)      (None, 16, 16, 128)  0           batch_normalization_21[0][0]     
__________________________________________________________________________________________________
conv2d_24 (Conv2D)              (None, 16, 16, 512)  66048       leaky_re_lu_21[0][0]             
__________________________________________________________________________________________________
add_7 (Add)                     (None, 16, 16, 512)  0           add_6[0][0]                      
                                                                 conv2d_24[0][0]                  
__________________________________________________________________________________________________
batch_normalization_22 (BatchNo (None, 16, 16, 512)  2048        add_7[0][0]                      
__________________________________________________________________________________________________
leaky_re_lu_22 (LeakyReLU)      (None, 16, 16, 512)  0           batch_normalization_22[0][0]     
__________________________________________________________________________________________________
conv2d_25 (Conv2D)              (None, 8, 8, 256)    131328      leaky_re_lu_22[0][0]             
__________________________________________________________________________________________________
batch_normalization_23 (BatchNo (None, 8, 8, 256)    1024        conv2d_25[0][0]                  
__________________________________________________________________________________________________
leaky_re_lu_23 (LeakyReLU)      (None, 8, 8, 256)    0           batch_normalization_23[0][0]     
__________________________________________________________________________________________________
conv2d_26 (Conv2D)              (None, 8, 8, 256)    590080      leaky_re_lu_23[0][0]             
__________________________________________________________________________________________________
batch_normalization_24 (BatchNo (None, 8, 8, 256)    1024        conv2d_26[0][0]                  
__________________________________________________________________________________________________
leaky_re_lu_24 (LeakyReLU)      (None, 8, 8, 256)    0           batch_normalization_24[0][0]     
__________________________________________________________________________________________________
conv2d_28 (Conv2D)              (None, 8, 8, 1024)   525312      add_7[0][0]                      
__________________________________________________________________________________________________
conv2d_27 (Conv2D)              (None, 8, 8, 1024)   263168      leaky_re_lu_24[0][0]             
__________________________________________________________________________________________________
add_8 (Add)                     (None, 8, 8, 1024)   0           conv2d_28[0][0]                  
                                                                 conv2d_27[0][0]                  
__________________________________________________________________________________________________
batch_normalization_25 (BatchNo (None, 8, 8, 1024)   4096        add_8[0][0]                      
__________________________________________________________________________________________________
leaky_re_lu_25 (LeakyReLU)      (None, 8, 8, 1024)   0           batch_normalization_25[0][0]     
__________________________________________________________________________________________________
conv2d_29 (Conv2D)              (None, 8, 8, 256)    262400      leaky_re_lu_25[0][0]             
__________________________________________________________________________________________________
batch_normalization_26 (BatchNo (None, 8, 8, 256)    1024        conv2d_29[0][0]                  
__________________________________________________________________________________________________
leaky_re_lu_26 (LeakyReLU)      (None, 8, 8, 256)    0           batch_normalization_26[0][0]     
__________________________________________________________________________________________________
conv2d_30 (Conv2D)              (None, 8, 8, 256)    590080      leaky_re_lu_26[0][0]             
__________________________________________________________________________________________________
batch_normalization_27 (BatchNo (None, 8, 8, 256)    1024        conv2d_30[0][0]                  
__________________________________________________________________________________________________
leaky_re_lu_27 (LeakyReLU)      (None, 8, 8, 256)    0           batch_normalization_27[0][0]     
__________________________________________________________________________________________________
conv2d_31 (Conv2D)              (None, 8, 8, 1024)   263168      leaky_re_lu_27[0][0]             
__________________________________________________________________________________________________
add_9 (Add)                     (None, 8, 8, 1024)   0           add_8[0][0]                      
                                                                 conv2d_31[0][0]                  
__________________________________________________________________________________________________
batch_normalization_28 (BatchNo (None, 8, 8, 1024)   4096        add_9[0][0]                      
__________________________________________________________________________________________________
leaky_re_lu_28 (LeakyReLU)      (None, 8, 8, 1024)   0           batch_normalization_28[0][0]     
__________________________________________________________________________________________________
conv2d_32 (Conv2D)              (None, 8, 8, 256)    262400      leaky_re_lu_28[0][0]             
__________________________________________________________________________________________________
batch_normalization_29 (BatchNo (None, 8, 8, 256)    1024        conv2d_32[0][0]                  
__________________________________________________________________________________________________
leaky_re_lu_29 (LeakyReLU)      (None, 8, 8, 256)    0           batch_normalization_29[0][0]     
__________________________________________________________________________________________________
conv2d_33 (Conv2D)              (None, 8, 8, 256)    590080      leaky_re_lu_29[0][0]             
__________________________________________________________________________________________________
batch_normalization_30 (BatchNo (None, 8, 8, 256)    1024        conv2d_33[0][0]                  
__________________________________________________________________________________________________
leaky_re_lu_30 (LeakyReLU)      (None, 8, 8, 256)    0           batch_normalization_30[0][0]     
__________________________________________________________________________________________________
conv2d_34 (Conv2D)              (None, 8, 8, 1024)   263168      leaky_re_lu_30[0][0]             
__________________________________________________________________________________________________
add_10 (Add)                    (None, 8, 8, 1024)   0           add_9[0][0]                      
                                                                 conv2d_34[0][0]                  
__________________________________________________________________________________________________
batch_normalization_31 (BatchNo (None, 8, 8, 1024)   4096        add_10[0][0]                     
__________________________________________________________________________________________________
leaky_re_lu_31 (LeakyReLU)      (None, 8, 8, 1024)   0           batch_normalization_31[0][0]     
__________________________________________________________________________________________________
conv2d_35 (Conv2D)              (None, 8, 8, 256)    262400      leaky_re_lu_31[0][0]             
__________________________________________________________________________________________________
batch_normalization_32 (BatchNo (None, 8, 8, 256)    1024        conv2d_35[0][0]                  
__________________________________________________________________________________________________
leaky_re_lu_32 (LeakyReLU)      (None, 8, 8, 256)    0           batch_normalization_32[0][0]     
__________________________________________________________________________________________________
conv2d_36 (Conv2D)              (None, 8, 8, 256)    590080      leaky_re_lu_32[0][0]             
__________________________________________________________________________________________________
batch_normalization_33 (BatchNo (None, 8, 8, 256)    1024        conv2d_36[0][0]                  
__________________________________________________________________________________________________
leaky_re_lu_33 (LeakyReLU)      (None, 8, 8, 256)    0           batch_normalization_33[0][0]     
__________________________________________________________________________________________________
conv2d_37 (Conv2D)              (None, 8, 8, 1024)   263168      leaky_re_lu_33[0][0]             
__________________________________________________________________________________________________
add_11 (Add)                    (None, 8, 8, 1024)   0           add_10[0][0]                     
                                                                 conv2d_37[0][0]                  
__________________________________________________________________________________________________
batch_normalization_34 (BatchNo (None, 8, 8, 1024)   4096        add_11[0][0]                     
__________________________________________________________________________________________________
leaky_re_lu_34 (LeakyReLU)      (None, 8, 8, 1024)   0           batch_normalization_34[0][0]     
__________________________________________________________________________________________________
conv2d_38 (Conv2D)              (None, 8, 8, 256)    262400      leaky_re_lu_34[0][0]             
__________________________________________________________________________________________________
batch_normalization_35 (BatchNo (None, 8, 8, 256)    1024        conv2d_38[0][0]                  
__________________________________________________________________________________________________
leaky_re_lu_35 (LeakyReLU)      (None, 8, 8, 256)    0           batch_normalization_35[0][0]     
__________________________________________________________________________________________________
conv2d_39 (Conv2D)              (None, 8, 8, 256)    590080      leaky_re_lu_35[0][0]             
__________________________________________________________________________________________________
batch_normalization_36 (BatchNo (None, 8, 8, 256)    1024        conv2d_39[0][0]                  
__________________________________________________________________________________________________
leaky_re_lu_36 (LeakyReLU)      (None, 8, 8, 256)    0           batch_normalization_36[0][0]     
__________________________________________________________________________________________________
conv2d_40 (Conv2D)              (None, 8, 8, 1024)   263168      leaky_re_lu_36[0][0]             
__________________________________________________________________________________________________
add_12 (Add)                    (None, 8, 8, 1024)   0           add_11[0][0]                     
                                                                 conv2d_40[0][0]                  
__________________________________________________________________________________________________
batch_normalization_37 (BatchNo (None, 8, 8, 1024)   4096        add_12[0][0]                     
__________________________________________________________________________________________________
leaky_re_lu_37 (LeakyReLU)      (None, 8, 8, 1024)   0           batch_normalization_37[0][0]     
__________________________________________________________________________________________________
conv2d_41 (Conv2D)              (None, 8, 8, 256)    262400      leaky_re_lu_37[0][0]             
__________________________________________________________________________________________________
batch_normalization_38 (BatchNo (None, 8, 8, 256)    1024        conv2d_41[0][0]                  
__________________________________________________________________________________________________
leaky_re_lu_38 (LeakyReLU)      (None, 8, 8, 256)    0           batch_normalization_38[0][0]     
__________________________________________________________________________________________________
conv2d_42 (Conv2D)              (None, 8, 8, 256)    590080      leaky_re_lu_38[0][0]             
__________________________________________________________________________________________________
batch_normalization_39 (BatchNo (None, 8, 8, 256)    1024        conv2d_42[0][0]                  
__________________________________________________________________________________________________
leaky_re_lu_39 (LeakyReLU)      (None, 8, 8, 256)    0           batch_normalization_39[0][0]     
__________________________________________________________________________________________________
conv2d_43 (Conv2D)              (None, 8, 8, 1024)   263168      leaky_re_lu_39[0][0]             
__________________________________________________________________________________________________
add_13 (Add)                    (None, 8, 8, 1024)   0           add_12[0][0]                     
                                                                 conv2d_43[0][0]                  
__________________________________________________________________________________________________
batch_normalization_40 (BatchNo (None, 8, 8, 1024)   4096        add_13[0][0]                     
__________________________________________________________________________________________________
leaky_re_lu_40 (LeakyReLU)      (None, 8, 8, 1024)   0           batch_normalization_40[0][0]     
__________________________________________________________________________________________________
conv2d_44 (Conv2D)              (None, 4, 4, 512)    524800      leaky_re_lu_40[0][0]             
__________________________________________________________________________________________________
batch_normalization_41 (BatchNo (None, 4, 4, 512)    2048        conv2d_44[0][0]                  
__________________________________________________________________________________________________
leaky_re_lu_41 (LeakyReLU)      (None, 4, 4, 512)    0           batch_normalization_41[0][0]     
__________________________________________________________________________________________________
conv2d_45 (Conv2D)              (None, 4, 4, 512)    2359808     leaky_re_lu_41[0][0]             
__________________________________________________________________________________________________
batch_normalization_42 (BatchNo (None, 4, 4, 512)    2048        conv2d_45[0][0]                  
__________________________________________________________________________________________________
leaky_re_lu_42 (LeakyReLU)      (None, 4, 4, 512)    0           batch_normalization_42[0][0]     
__________________________________________________________________________________________________
conv2d_47 (Conv2D)              (None, 4, 4, 2048)   2099200     add_13[0][0]                     
__________________________________________________________________________________________________
conv2d_46 (Conv2D)              (None, 4, 4, 2048)   1050624     leaky_re_lu_42[0][0]             
__________________________________________________________________________________________________
add_14 (Add)                    (None, 4, 4, 2048)   0           conv2d_47[0][0]                  
                                                                 conv2d_46[0][0]                  
__________________________________________________________________________________________________
batch_normalization_43 (BatchNo (None, 4, 4, 2048)   8192        add_14[0][0]                     
__________________________________________________________________________________________________
leaky_re_lu_43 (LeakyReLU)      (None, 4, 4, 2048)   0           batch_normalization_43[0][0]     
__________________________________________________________________________________________________
conv2d_48 (Conv2D)              (None, 4, 4, 512)    1049088     leaky_re_lu_43[0][0]             
__________________________________________________________________________________________________
batch_normalization_44 (BatchNo (None, 4, 4, 512)    2048        conv2d_48[0][0]                  
__________________________________________________________________________________________________
leaky_re_lu_44 (LeakyReLU)      (None, 4, 4, 512)    0           batch_normalization_44[0][0]     
__________________________________________________________________________________________________
conv2d_49 (Conv2D)              (None, 4, 4, 512)    2359808     leaky_re_lu_44[0][0]             
__________________________________________________________________________________________________
batch_normalization_45 (BatchNo (None, 4, 4, 512)    2048        conv2d_49[0][0]                  
__________________________________________________________________________________________________
leaky_re_lu_45 (LeakyReLU)      (None, 4, 4, 512)    0           batch_normalization_45[0][0]     
__________________________________________________________________________________________________
conv2d_50 (Conv2D)              (None, 4, 4, 2048)   1050624     leaky_re_lu_45[0][0]             
__________________________________________________________________________________________________
add_15 (Add)                    (None, 4, 4, 2048)   0           add_14[0][0]                     
                                                                 conv2d_50[0][0]                  
215/311 [===================>..........] - ETA: 17s - loss: 1.3594 - acc: 0.6042
216/311 [===================>..........] - ETA: 16s - loss: 1.3599 - acc: 0.6042
217/311 [===================>..........] - ETA: 16s - loss: 1.3582 - acc: 0.6047
218/311 [====================>.........] - ETA: 16s - loss: 1.3605 - acc: 0.6032
…
2018-06-15 20:44:25.493241: I tensorflow/core/common_runtime/gpu/gpu_device.cc:1053] Created TensorFlow device (/job:localhost/replica:0/task:0/device:GPU:0 with 15031 MB memory) -> physical GPU (device: 0, name: Tesla P100-PCIE-16GB, pci bus id: 0000:00:04.0, compute capability: 6.0)
Found 9954 images belonging to 13 classes.
Found 2482 images belonging to 13 classes.
__________________________________________________________________________________________________
Layer (type)                    Output Shape         Param #     Connected to                     
==================================================================================================
input_1 (InputLayer)            (None, 128, 128, 3)  0                                            
__________________________________________________________________________________________________
conv2d_1 (Conv2D)               (None, 64, 64, 64)   9472        input_1[0][0]                    
__________________________________________________________________________________________________
batch_normalization_1 (BatchNor (None, 64, 64, 64)   256         conv2d_1[0][0]                   
__________________________________________________________________________________________________
leaky_re_lu_1 (LeakyReLU)       (None, 64, 64, 64)   0           batch_normalization_1[0][0]      
__________________________________________________________________________________________________
max_pooling2d_1 (MaxPooling2D)  (None, 32, 32, 64)   0           leaky_re_lu_1[0][0]              
__________________________________________________________________________________________________
conv2d_2 (Conv2D)               (None, 32, 32, 64)   4160        max_pooling2d_1[0][0]            
__________________________________________________________________________________________________
batch_normalization_2 (BatchNor (None, 32, 32, 64)   256         conv2d_2[0][0]                   
__________________________________________________________________________________________________
leaky_re_lu_2 (LeakyReLU)       (None, 32, 32, 64)   0           batch_normalization_2[0][0]      
__________________________________________________________________________________________________
conv2d_3 (Conv2D)               (None, 32, 32, 64)   36928       leaky_re_lu_2[0][0]              
__________________________________________________________________________________________________
batch_normalization_3 (BatchNor (None, 32, 32, 64)   256         conv2d_3[0][0]                   
__________________________________________________________________________________________________
leaky_re_lu_3 (LeakyReLU)       (None, 32, 32, 64)   0           batch_normalization_3[0][0]      
__________________________________________________________________________________________________
conv2d_5 (Conv2D)               (None, 32, 32, 256)  16640       max_pooling2d_1[0][0]            
__________________________________________________________________________________________________
conv2d_4 (Conv2D)               (None, 32, 32, 256)  16640       leaky_re_lu_3[0][0]              
__________________________________________________________________________________________________
add_1 (Add)                     (None, 32, 32, 256)  0           conv2d_5[0][0]                   
                                                                 conv2d_4[0][0]                   
__________________________________________________________________________________________________
batch_normalization_4 (BatchNor (None, 32, 32, 256)  1024        add_1[0][0]                      
__________________________________________________________________________________________________
leaky_re_lu_4 (LeakyReLU)       (None, 32, 32, 256)  0           batch_normalization_4[0][0]      
__________________________________________________________________________________________________
conv2d_6 (Conv2D)               (None, 32, 32, 64)   16448       leaky_re_lu_4[0][0]              
__________________________________________________________________________________________________
batch_normalization_5 (BatchNor (None, 32, 32, 64)   256         conv2d_6[0][0]                   
__________________________________________________________________________________________________
leaky_re_lu_5 (LeakyReLU)       (None, 32, 32, 64)   0           batch_normalization_5[0][0]      
__________________________________________________________________________________________________
conv2d_7 (Conv2D)               (None, 32, 32, 64)   36928       leaky_re_lu_5[0][0]              
__________________________________________________________________________________________________
batch_normalization_6 (BatchNor (None, 32, 32, 64)   256         conv2d_7[0][0]                   
__________________________________________________________________________________________________
leaky_re_lu_6 (LeakyReLU)       (None, 32, 32, 64)   0           batch_normalization_6[0][0]      
__________________________________________________________________________________________________
conv2d_8 (Conv2D)               (None, 32, 32, 256)  16640       leaky_re_lu_6[0][0]              
__________________________________________________________________________________________________
add_2 (Add)                     (None, 32, 32, 256)  0           add_1[0][0]                      
                                                                 conv2d_8[0][0]                   
__________________________________________________________________________________________________
batch_normalization_7 (BatchNor (None, 32, 32, 256)  1024        add_2[0][0]                      
__________________________________________________________________________________________________
leaky_re_lu_7 (LeakyReLU)       (None, 32, 32, 256)  0           batch_normalization_7[0][0]      
__________________________________________________________________________________________________
conv2d_9 (Conv2D)               (None, 32, 32, 64)   16448       leaky_re_lu_7[0][0]              
__________________________________________________________________________________________________
batch_normalization_8 (BatchNor (None, 32, 32, 64)   256         conv2d_9[0][0]                   
__________________________________________________________________________________________________
leaky_re_lu_8 (LeakyReLU)       (None, 32, 32, 64)   0           batch_normalization_8[0][0]      
__________________________________________________________________________________________________
conv2d_10 (Conv2D)              (None, 32, 32, 64)   36928       leaky_re_lu_8[0][0]              
__________________________________________________________________________________________________
batch_normalization_9 (BatchNor (None, 32, 32, 64)   256         conv2d_10[0][0]                  
__________________________________________________________________________________________________
leaky_re_lu_9 (LeakyReLU)       (None, 32, 32, 64)   0           batch_normalization_9[0][0]      
__________________________________________________________________________________________________
conv2d_11 (Conv2D)              (None, 32, 32, 256)  16640       leaky_re_lu_9[0][0]              
__________________________________________________________________________________________________
add_3 (Add)                     (None, 32, 32, 256)  0           add_2[0][0]                      
                                                                 conv2d_11[0][0]                  
__________________________________________________________________________________________________
batch_normalization_10 (BatchNo (None, 32, 32, 256)  1024        add_3[0][0]                      
__________________________________________________________________________________________________
leaky_re_lu_10 (LeakyReLU)      (None, 32, 32, 256)  0           batch_normalization_10[0][0]     
__________________________________________________________________________________________________
conv2d_12 (Conv2D)              (None, 16, 16, 128)  32896       leaky_re_lu_10[0][0]             
__________________________________________________________________________________________________
batch_normalization_11 (BatchNo (None, 16, 16, 128)  512         conv2d_12[0][0]                  
__________________________________________________________________________________________________
leaky_re_lu_11 (LeakyReLU)      (None, 16, 16, 128)  0           batch_normalization_11[0][0]     
__________________________________________________________________________________________________
conv2d_13 (Conv2D)              (None, 16, 16, 128)  147584      leaky_re_lu_11[0][0]             
__________________________________________________________________________________________________
batch_normalization_12 (BatchNo (None, 16, 16, 128)  512         conv2d_13[0][0]                  
__________________________________________________________________________________________________
leaky_re_lu_12 (LeakyReLU)      (None, 16, 16, 128)  0           batch_normalization_12[0][0]     
__________________________________________________________________________________________________
conv2d_15 (Conv2D)              (None, 16, 16, 512)  131584      add_3[0][0]                      
__________________________________________________________________________________________________
conv2d_14 (Conv2D)              (None, 16, 16, 512)  66048       leaky_re_lu_12[0][0]             
__________________________________________________________________________________________________
add_4 (Add)                     (None, 16, 16, 512)  0           conv2d_15[0][0]                  
                                                                 conv2d_14[0][0]                  
__________________________________________________________________________________________________
batch_normalization_13 (BatchNo (None, 16, 16, 512)  2048        add_4[0][0]                      
__________________________________________________________________________________________________
leaky_re_lu_13 (LeakyReLU)      (None, 16, 16, 512)  0           batch_normalization_13[0][0]     
__________________________________________________________________________________________________
conv2d_16 (Conv2D)              (None, 16, 16, 128)  65664       leaky_re_lu_13[0][0]             
__________________________________________________________________________________________________
batch_normalization_14 (BatchNo (None, 16, 16, 128)  512         conv2d_16[0][0]                  
__________________________________________________________________________________________________
leaky_re_lu_14 (LeakyReLU)      (None, 16, 16, 128)  0           batch_normalization_14[0][0]     
__________________________________________________________________________________________________
conv2d_17 (Conv2D)              (None, 16, 16, 128)  147584      leaky_re_lu_14[0][0]             
__________________________________________________________________________________________________
batch_normalization_15 (BatchNo (None, 16, 16, 128)  512         conv2d_17[0][0]                  
__________________________________________________________________________________________________
leaky_re_lu_15 (LeakyReLU)      (None, 16, 16, 128)  0           batch_normalization_15[0][0]     
__________________________________________________________________________________________________
conv2d_18 (Conv2D)              (None, 16, 16, 512)  66048       leaky_re_lu_15[0][0]             
__________________________________________________________________________________________________
add_5 (Add)                     (None, 16, 16, 512)  0           add_4[0][0]                      
                                                                 conv2d_18[0][0]                  
__________________________________________________________________________________________________
batch_normalization_16 (BatchNo (None, 16, 16, 512)  2048        add_5[0][0]                      
__________________________________________________________________________________________________
leaky_re_lu_16 (LeakyReLU)      (None, 16, 16, 512)  0           batch_normalization_16[0][0]     
__________________________________________________________________________________________________
conv2d_19 (Conv2D)              (None, 16, 16, 128)  65664       leaky_re_lu_16[0][0]             
__________________________________________________________________________________________________
batch_normalization_17 (BatchNo (None, 16, 16, 128)  512         conv2d_19[0][0]                  
__________________________________________________________________________________________________
leaky_re_lu_17 (LeakyReLU)      (None, 16, 16, 128)  0           batch_normalization_17[0][0]     
__________________________________________________________________________________________________
conv2d_20 (Conv2D)              (None, 16, 16, 128)  147584      leaky_re_lu_17[0][0]             
__________________________________________________________________________________________________
batch_normalization_18 (BatchNo (None, 16, 16, 128)  512         conv2d_20[0][0]                  
__________________________________________________________________________________________________
leaky_re_lu_18 (LeakyReLU)      (None, 16, 16, 128)  0           batch_normalization_18[0][0]     
__________________________________________________________________________________________________
conv2d_21 (Conv2D)              (None, 16, 16, 512)  66048       leaky_re_lu_18[0][0]             
__________________________________________________________________________________________________
add_6 (Add)                     (None, 16, 16, 512)  0           add_5[0][0]                      
                                                                 conv2d_21[0][0]                  
__________________________________________________________________________________________________
batch_normalization_19 (BatchNo (None, 16, 16, 512)  2048        add_6[0][0]                      
__________________________________________________________________________________________________
leaky_re_lu_19 (LeakyReLU)      (None, 16, 16, 512)  0           batch_normalization_19[0][0]     
__________________________________________________________________________________________________
conv2d_22 (Conv2D)              (None, 16, 16, 128)  65664       leaky_re_lu_19[0][0]             
__________________________________________________________________________________________________
batch_normalization_20 (BatchNo (None, 16, 16, 128)  512         conv2d_22[0][0]                  
__________________________________________________________________________________________________
leaky_re_lu_20 (LeakyReLU)      (None, 16, 16, 128)  0           batch_normalization_20[0][0]     
__________________________________________________________________________________________________
conv2d_23 (Conv2D)              (None, 16, 16, 128)  147584      leaky_re_lu_20[0][0]             
__________________________________________________________________________________________________
batch_normalization_21 (BatchNo (None, 16, 16, 128)  512         conv2d_23[0][0]                  
__________________________________________________________________________________________________
leaky_re_lu_21 (LeakyReLU)      (None, 16, 16, 128)  0           batch_normalization_21[0][0]     
__________________________________________________________________________________________________
conv2d_24 (Conv2D)              (None, 16, 16, 512)  66048       leaky_re_lu_21[0][0]             
__________________________________________________________________________________________________
add_7 (Add)                     (None, 16, 16, 512)  0           add_6[0][0]                      
                                                                 conv2d_24[0][0]                  
__________________________________________________________________________________________________
batch_normalization_22 (BatchNo (None, 16, 16, 512)  2048        add_7[0][0]                      
__________________________________________________________________________________________________
leaky_re_lu_22 (LeakyReLU)      (None, 16, 16, 512)  0           batch_normalization_22[0][0]     
__________________________________________________________________________________________________
conv2d_25 (Conv2D)              (None, 8, 8, 256)    131328      leaky_re_lu_22[0][0]             
__________________________________________________________________________________________________
batch_normalization_23 (BatchNo (None, 8, 8, 256)    1024        conv2d_25[0][0]                  
__________________________________________________________________________________________________
leaky_re_lu_23 (LeakyReLU)      (None, 8, 8, 256)    0           batch_normalization_23[0][0]     
__________________________________________________________________________________________________
conv2d_26 (Conv2D)              (None, 8, 8, 256)    590080      leaky_re_lu_23[0][0]             
__________________________________________________________________________________________________
batch_normalization_24 (BatchNo (None, 8, 8, 256)    1024        conv2d_26[0][0]                  
__________________________________________________________________________________________________
leaky_re_lu_24 (LeakyReLU)      (None, 8, 8, 256)    0           batch_normalization_24[0][0]     
__________________________________________________________________________________________________
conv2d_28 (Conv2D)              (None, 8, 8, 1024)   525312      add_7[0][0]                      
__________________________________________________________________________________________________
conv2d_27 (Conv2D)              (None, 8, 8, 1024)   263168      leaky_re_lu_24[0][0]             
__________________________________________________________________________________________________
add_8 (Add)                     (None, 8, 8, 1024)   0           conv2d_28[0][0]                  
                                                                 conv2d_27[0][0]                  
__________________________________________________________________________________________________
batch_normalization_25 (BatchNo (None, 8, 8, 1024)   4096        add_8[0][0]                      
__________________________________________________________________________________________________
leaky_re_lu_25 (LeakyReLU)      (None, 8, 8, 1024)   0           batch_normalization_25[0][0]     
__________________________________________________________________________________________________
conv2d_29 (Conv2D)              (None, 8, 8, 256)    262400      leaky_re_lu_25[0][0]             
__________________________________________________________________________________________________
batch_normalization_26 (BatchNo (None, 8, 8, 256)    1024        conv2d_29[0][0]                  
__________________________________________________________________________________________________
leaky_re_lu_26 (LeakyReLU)      (None, 8, 8, 256)    0           batch_normalization_26[0][0]     
__________________________________________________________________________________________________
conv2d_30 (Conv2D)              (None, 8, 8, 256)    590080      leaky_re_lu_26[0][0]             
__________________________________________________________________________________________________
batch_normalization_27 (BatchNo (None, 8, 8, 256)    1024        conv2d_30[0][0]                  
__________________________________________________________________________________________________
leaky_re_lu_27 (LeakyReLU)      (None, 8, 8, 256)    0           batch_normalization_27[0][0]     
__________________________________________________________________________________________________
conv2d_31 (Conv2D)              (None, 8, 8, 1024)   263168      leaky_re_lu_27[0][0]             
__________________________________________________________________________________________________
add_9 (Add)                     (None, 8, 8, 1024)   0           add_8[0][0]                      
                                                                 conv2d_31[0][0]                  
__________________________________________________________________________________________________
batch_normalization_28 (BatchNo (None, 8, 8, 1024)   4096        add_9[0][0]                      
__________________________________________________________________________________________________
leaky_re_lu_28 (LeakyReLU)      (None, 8, 8, 1024)   0           batch_normalization_28[0][0]     
__________________________________________________________________________________________________
conv2d_32 (Conv2D)              (None, 8, 8, 256)    262400      leaky_re_lu_28[0][0]             
__________________________________________________________________________________________________
batch_normalization_29 (BatchNo (None, 8, 8, 256)    1024        conv2d_32[0][0]                  
__________________________________________________________________________________________________
leaky_re_lu_29 (LeakyReLU)      (None, 8, 8, 256)    0           batch_normalization_29[0][0]     
__________________________________________________________________________________________________
conv2d_33 (Conv2D)              (None, 8, 8, 256)    590080      leaky_re_lu_29[0][0]             
__________________________________________________________________________________________________
batch_normalization_30 (BatchNo (None, 8, 8, 256)    1024        conv2d_33[0][0]                  
__________________________________________________________________________________________________
leaky_re_lu_30 (LeakyReLU)      (None, 8, 8, 256)    0           batch_normalization_30[0][0]     
__________________________________________________________________________________________________
conv2d_34 (Conv2D)              (None, 8, 8, 1024)   263168      leaky_re_lu_30[0][0]             
__________________________________________________________________________________________________
add_10 (Add)                    (None, 8, 8, 1024)   0           add_9[0][0]                      
                                                                 conv2d_34[0][0]                  
__________________________________________________________________________________________________
batch_normalization_31 (BatchNo (None, 8, 8, 1024)   4096        add_10[0][0]                     
__________________________________________________________________________________________________
leaky_re_lu_31 (LeakyReLU)      (None, 8, 8, 1024)   0           batch_normalization_31[0][0]     
__________________________________________________________________________________________________
conv2d_35 (Conv2D)              (None, 8, 8, 256)    262400      leaky_re_lu_31[0][0]             
__________________________________________________________________________________________________
batch_normalization_32 (BatchNo (None, 8, 8, 256)    1024        conv2d_35[0][0]                  
__________________________________________________________________________________________________
leaky_re_lu_32 (LeakyReLU)      (None, 8, 8, 256)    0           batch_normalization_32[0][0]     
__________________________________________________________________________________________________
conv2d_36 (Conv2D)              (None, 8, 8, 256)    590080      leaky_re_lu_32[0][0]             
__________________________________________________________________________________________________
batch_normalization_33 (BatchNo (None, 8, 8, 256)    1024        conv2d_36[0][0]                  
__________________________________________________________________________________________________
leaky_re_lu_33 (LeakyReLU)      (None, 8, 8, 256)    0           batch_normalization_33[0][0]     
__________________________________________________________________________________________________
conv2d_37 (Conv2D)              (None, 8, 8, 1024)   263168      leaky_re_lu_33[0][0]             
__________________________________________________________________________________________________
add_11 (Add)                    (None, 8, 8, 1024)   0           add_10[0][0]                     
                                                                 conv2d_37[0][0]                  
__________________________________________________________________________________________________
batch_normalization_34 (BatchNo (None, 8, 8, 1024)   4096        add_11[0][0]                     
__________________________________________________________________________________________________
leaky_re_lu_34 (LeakyReLU)      (None, 8, 8, 1024)   0           batch_normalization_34[0][0]     
__________________________________________________________________________________________________
conv2d_38 (Conv2D)              (None, 8, 8, 256)    262400      leaky_re_lu_34[0][0]             
__________________________________________________________________________________________________
batch_normalization_35 (BatchNo (None, 8, 8, 256)    1024        conv2d_38[0][0]                  
__________________________________________________________________________________________________
leaky_re_lu_35 (LeakyReLU)      (None, 8, 8, 256)    0           batch_normalization_35[0][0]     
__________________________________________________________________________________________________
conv2d_39 (Conv2D)              (None, 8, 8, 256)    590080      leaky_re_lu_35[0][0]             
__________________________________________________________________________________________________
batch_normalization_36 (BatchNo (None, 8, 8, 256)    1024        conv2d_39[0][0]                  
__________________________________________________________________________________________________
leaky_re_lu_36 (LeakyReLU)      (None, 8, 8, 256)    0           batch_normalization_36[0][0]     
__________________________________________________________________________________________________
conv2d_40 (Conv2D)              (None, 8, 8, 1024)   263168      leaky_re_lu_36[0][0]             
__________________________________________________________________________________________________
add_12 (Add)                    (None, 8, 8, 1024)   0           add_11[0][0]                     
                                                                 conv2d_40[0][0]                  
__________________________________________________________________________________________________
batch_normalization_37 (BatchNo (None, 8, 8, 1024)   4096        add_12[0][0]                     
__________________________________________________________________________________________________
leaky_re_lu_37 (LeakyReLU)      (None, 8, 8, 1024)   0           batch_normalization_37[0][0]     
__________________________________________________________________________________________________
conv2d_41 (Conv2D)              (None, 8, 8, 256)    262400      leaky_re_lu_37[0][0]             
__________________________________________________________________________________________________
batch_normalization_38 (BatchNo (None, 8, 8, 256)    1024        conv2d_41[0][0]                  
__________________________________________________________________________________________________
leaky_re_lu_38 (LeakyReLU)      (None, 8, 8, 256)    0           batch_normalization_38[0][0]     
__________________________________________________________________________________________________
conv2d_42 (Conv2D)              (None, 8, 8, 256)    590080      leaky_re_lu_38[0][0]             
__________________________________________________________________________________________________
batch_normalization_39 (BatchNo (None, 8, 8, 256)    1024        conv2d_42[0][0]                  
__________________________________________________________________________________________________
leaky_re_lu_39 (LeakyReLU)      (None, 8, 8, 256)    0           batch_normalization_39[0][0]     
__________________________________________________________________________________________________
conv2d_43 (Conv2D)              (None, 8, 8, 1024)   263168      leaky_re_lu_39[0][0]             
__________________________________________________________________________________________________
add_13 (Add)                    (None, 8, 8, 1024)   0           add_12[0][0]                     
                                                                 conv2d_43[0][0]                  
__________________________________________________________________________________________________
batch_normalization_40 (BatchNo (None, 8, 8, 1024)   4096        add_13[0][0]                     
__________________________________________________________________________________________________
leaky_re_lu_40 (LeakyReLU)      (None, 8, 8, 1024)   0           batch_normalization_40[0][0]     
__________________________________________________________________________________________________
conv2d_44 (Conv2D)              (None, 4, 4, 512)    524800      leaky_re_lu_40[0][0]             
__________________________________________________________________________________________________
batch_normalization_41 (BatchNo (None, 4, 4, 512)    2048        conv2d_44[0][0]                  
__________________________________________________________________________________________________
leaky_re_lu_41 (LeakyReLU)      (None, 4, 4, 512)    0           batch_normalization_41[0][0]     
__________________________________________________________________________________________________
conv2d_45 (Conv2D)              (None, 4, 4, 512)    2359808     leaky_re_lu_41[0][0]             
__________________________________________________________________________________________________
batch_normalization_42 (BatchNo (None, 4, 4, 512)    2048        conv2d_45[0][0]                  
__________________________________________________________________________________________________
leaky_re_lu_42 (LeakyReLU)      (None, 4, 4, 512)    0           batch_normalization_42[0][0]     
__________________________________________________________________________________________________
conv2d_47 (Conv2D)              (None, 4, 4, 2048)   2099200     add_13[0][0]                     
__________________________________________________________________________________________________
conv2d_46 (Conv2D)              (None, 4, 4, 2048)   1050624     leaky_re_lu_42[0][0]             
__________________________________________________________________________________________________
add_14 (Add)                    (None, 4, 4, 2048)   0           conv2d_47[0][0]                  
                                                                 conv2d_46[0][0]                  
__________________________________________________________________________________________________
batch_normalization_43 (BatchNo (None, 4, 4, 2048)   8192        add_14[0][0]                     
__________________________________________________________________________________________________
leaky_re_lu_43 (LeakyReLU)      (None, 4, 4, 2048)   0           batch_normalization_43[0][0]     
__________________________________________________________________________________________________
conv2d_48 (Conv2D)              (None, 4, 4, 512)    1049088     leaky_re_lu_43[0][0]             
__________________________________________________________________________________________________
batch_normalization_44 (BatchNo (None, 4, 4, 512)    2048        conv2d_48[0][0]                  
__________________________________________________________________________________________________
leaky_re_lu_44 (LeakyReLU)      (None, 4, 4, 512)    0           batch_normalization_44[0][0]     
__________________________________________________________________________________________________
conv2d_49 (Conv2D)              (None, 4, 4, 512)    2359808     leaky_re_lu_44[0][0]             
__________________________________________________________________________________________________
batch_normalization_45 (BatchNo (None, 4, 4, 512)    2048        conv2d_49[0][0]                  
__________________________________________________________________________________________________
leaky_re_lu_45 (LeakyReLU)      (None, 4, 4, 512)    0           batch_normalization_45[0][0]     
__________________________________________________________________________________________________
conv2d_50 (Conv2D)              (None, 4, 4, 2048)   1050624     leaky_re_lu_45[0][0]             
__________________________________________________________________________________________________
add_15 (Add)                    (None, 4, 4, 2048)   0           add_14[0][0]                     
                                                                 conv2d_50[0][0]                  
__________________________________________________________________________________________________
batch_normalization_46 (BatchNo (None, 4, 4, 2048)   8192        add_15[0][0]                     
__________________________________________________________________________________________________
leaky_re_lu_46 (LeakyReLU)      (None, 4, 4, 2048)   0           batch_normalization_46[0][0]     
__________________________________________________________________________________________________
conv2d_51 (Conv2D)              (None, 4, 4, 512)    1049088     leaky_re_lu_46[0][0]             
__________________________________________________________________________________________________
batch_normalization_47 (BatchNo (None, 4, 4, 512)    2048        conv2d_51[0][0]                  
__________________________________________________________________________________________________
leaky_re_lu_47 (LeakyReLU)      (None, 4, 4, 512)    0           batch_normalization_47[0][0]     
__________________________________________________________________________________________________
conv2d_52 (Conv2D)              (None, 4, 4, 512)    2359808     leaky_re_lu_47[0][0]             
__________________________________________________________________________________________________
batch_normalization_48 (BatchNo (None, 4, 4, 512)    2048        conv2d_52[0][0]                  
__________________________________________________________________________________________________
leaky_re_lu_48 (LeakyReLU)      (None, 4, 4, 512)    0           batch_normalization_48[0][0]     
__________________________________________________________________________________________________
conv2d_53 (Conv2D)              (None, 4, 4, 2048)   1050624     leaky_re_lu_48[0][0]             
__________________________________________________________________________________________________
add_16 (Add)                    (None, 4, 4, 2048)   0           add_15[0][0]                     
                                                                 conv2d_53[0][0]                  
__________________________________________________________________________________________________
batch_normalization_49 (BatchNo (None, 4, 4, 2048)   8192        add_16[0][0]                     
__________________________________________________________________________________________________
leaky_re_lu_49 (LeakyReLU)      (None, 4, 4, 2048)   0           batch_normalization_49[0][0]     
__________________________________________________________________________________________________
average_pooling2d_1 (AveragePoo (None, 1, 1, 2048)   0           leaky_re_lu_49[0][0]             
__________________________________________________________________________________________________
flatten_1 (Flatten)             (None, 2048)         0           average_pooling2d_1[0][0]        
__________________________________________________________________________________________________
dense_1 (Dense)                 (None, 13)           26637       flatten_1[0][0]                  
==================================================================================================
Total params: 23,598,989
Trainable params: 23,553,549
Non-trainable params: 45,440
__________________________________________________________________________________________________
Epoch 1/100

  1/311 [..............................] - ETA: 55:27 - loss: 6.8495 - acc: 0.0312
…
